assets/models/imu_model.tflite (tflite, 208644 bytes, 11 tensors)

arith.constant f4 [64]
0	0xbaf3f9fe	-0.0018613932
1	0x00000000	0.0
2	0x3bf76cea	0.0075508254
3	0x3c87194b	0.016491553
4	0x3c5a5bde	0.013327567
5	0x3c00dd8e	0.007865323
6	0x3c9a0cc0	0.018804908
7	0x3ba6b3c4	0.0050873477
8	0xbc47573d	-0.012166795
9	0xbc44842e	-0.011994405
10	0xbb7bfabd	-0.0038449012
11	0x3c4df780	0.012571216
12	0x3c399e96	0.011329314
13	0xbc91e23a	-0.017808069
14	0x3bacd781	0.0052747135
15	0xbcc1fc8e	-0.023679998
16	0x3c7e92c3	0.01553792
17	0x3cb4c0db	0.022064617
18	0x3b4b9db2	0.0031069336
19	0xbbb58788	-0.005539838
20	0x3baec06e	0.005332998
21	0x3c1063b0	0.00881283
22	0x3c277819	0.010221505
23	0xbc81112a	-0.015755255
24	0xbbdd9841	-0.006762535
25	0x3c58a393	0.013222593
26	0x3ce11f92	0.027480874
27	0xbcbd2a10	-0.023091346
28	0xbc154148	-0.009109803
29	0xbc1e0d79	-0.009646767
30	0x3d234f62	0.039870627
31	0xbc23a38d	-0.009987724
32	0x3ca14687	0.01968695
33	0x3be2c941	0.006920964
34	0x3a90d8aa	0.0011050899
35	0x3c66d811	0.0140896
36	0x3c8caa08	0.017170921
37	0xbc1f6840	-0.009729445
38	0x3a1de555	0.0006023248
39	0x3c26d632	0.010182904
40	0x3c2e89cf	0.010652973
41	0x3bfabf93	0.007652232
42	0x3c895652	0.016764794
43	0x00000000	0.0
44	0x3b98fddf	0.0046689357
45	0xbcb0558b	-0.021525165
46	0xbc4a6460	-0.012353033
47	0x3c9d9b4f	0.019239096
48	0x3bb9871f	0.0056618596
49	0xbccaae68	-0.024741367
50	0xbc0eb5ae	-0.008710308
51	0x3bc7d566	0.006098437
52	0x3af607b4	0.0018770606
53	0x3abdbcd1	0.0014475827
54	0x3b6991fe	0.0035639997
55	0xbc4b9e9e	-0.012427954
56	0x3ca0328c	0.019555353
57	0x3b78aabd	0.0037943565
58	0x3ce406c9	0.027835267
59	0x3cc62d8c	0.02419164
60	0x3cb954f2	0.022623513
61	0xbbb4138b	-0.0054954938
62	0x3c8f7fc3	0.017516976
63	0x3c7a21ca	0.015266845

arith.constant1 f4 [64]
0	0xbbb89803	-0.0056333556
1	0x3c89cded	0.016821826
2	0xbbe9ab67	-0.0071310285
3	0xbab66aef	-0.0013917367
4	0xb98f46c7	-0.0002732782
5	0x3bc7a020	0.0060920864
6	0x3c24b2e8	0.01005242
7	0x3c1e58d6	0.009664735
8	0x3bb78e98	0.0056017153
9	0x3cd4414d	0.025910044
10	0xbb664a6c	-0.0035139574
11	0x3c6a337c	0.014294501
12	0x3c60feb6	0.013732603
13	0x3c2580fd	0.010101554
14	0x3c100f0e	0.008792652
15	0x3b7e2a4d	0.0038782537
16	0x3c2f6074	0.010704149
17	0xbc4b62af	-0.012413665
18	0xba9e9816	-0.0012099769
19	0x3c9710ba	0.018440593
20	0xbc2eafe4	-0.010662053
21	0xbba36883	-0.004986824
22	0xbc06405f	-0.008194058
23	0xba2f04ea	-0.00066764525
24	0xbba9a002	-0.005176545
25	0xbb0efc55	-0.0021817882
26	0x3c071f9b	0.008247281
27	0x3b74466a	0.0037273415
28	0x3c6a2019	0.014289879
29	0xbb4a9e7d	-0.003091722
30	0x3c849837	0.016185863
31	0x3b1e7b1d	0.0024182268
32	0x3b415dc7	0.0029505359
33	0x3cb52f79	0.022117363
34	0x3c08cf75	0.008350243
35	0x3b0f10c9	0.0021830073
36	0x3b96223a	0.004581717
37	0xbc1bdc21	-0.009512932
38	0x3b80cafa	0.0039304467
39	0x3c85c1fe	0.016327854
40	0x3c8c4ccf	0.017126469
41	0xbc6bc436	-0.014390042
42	0x3b16dd58	0.0023020115
43	0x3bed0508	0.007233266
44	0xbb2d9ff2	-0.002649304
45	0xbbc437aa	-0.005988081
46	0xba776e60	-0.00094387494
47	0x3b9be57d	0.0047575817
48	0xbc345803	-0.011007312
49	0xbc0a71fd	-0.0084500285
50	0x3bb6fe7b	0.0055845357
51	0x3bc310d5	0.0059529343
52	0x3be3fc2f	0.006957553
53	0x3c3f0f48	0.011661358
54	0x3be0aa7a	0.00685626
55	0xbc3e8c50	-0.011630133
56	0x3bdb4548	0.0066916086
57	0x3a4b769c	0.00077615096
58	0xbc3bf75a	-0.011472547
59	0xbb27c755	-0.002560099
60	0x3c8c1363	0.017099088
61	0x00000000	0.0
62	0xbbe9530f	-0.007120497
63	0x3ac2d348	0.0014863992

arith.constant2 f4 [32]
0	0x3b5eefed	0.0034017519
1	0x3c60cc26	0.013720548
2	0x3be23f69	0.0069045317
3	0x3a5ca6ae	0.0008417171
4	0x3ba60112	0.0050660456
5	0x3c4db1a3	0.012554559
6	0xbb2eaae7	-0.0026652159
7	0xbb1e6158	-0.0024166908
8	0x3c8e5c6f	0.01737806
9	0xbba4e3e1	-0.005032048
10	0x3a97f5bb	0.0011593619
11	0xbc824836	-0.015903573
12	0xbc12e730	-0.008966252
13	0x3cbaaa2f	0.022786228
14	0xbc11f100	-0.0089075565
15	0x3c7d77eb	0.015470485
16	0x3bd29b61	0.006427214
17	0xbc2a2fca	-0.01038737
18	0x3c21089a	0.009828711
19	0x3ce87082	0.02837396
20	0x3bd5d184	0.0065252203
21	0x3a075865	0.0005163013
22	0x3c779cb0	0.015113041
23	0x3c315481	0.01082337
24	0x3bfdfbb2	0.0077509517
25	0xbab04212	-0.0013447425
26	0x3c06fade	0.008238522
27	0xbc0e9839	-0.008703285
28	0x3c3e53ae	0.0116166305
29	0x3ca21083	0.019783264
30	0x3bf0b05c	0.0073452424
31	0xbbd85ab6	-0.0066026105

arith.constant3 f4 [2]
0	0xbb8c34ae	-0.004278741
1	0x3b8c34b8	0.0042787455

arith.constant10 f4 [64, 1, 5, 32]
0	0xbd4d63e6	-0.0501441
1	0x3d9da648	0.07697731
2	0x3cc89400	0.024484634
3	0xbd1258cd	-0.03572922
4	0xbc882545	-0.016619334
5	0x3d59d0e1	0.053177718
6	0xbda25148	-0.079256594
7	0x3dac82c6	0.084233806
8	0xbdf21263	-0.11819913
9	0x3d1014e6	0.03517618
10	0xbd820de9	-0.063503094
11	0x3dca2eb6	0.09872191
12	0xbd7e4e34	-0.0620863
13	0xbc3b15f8	-0.011418812
14	0x3d293f81	0.041320328
15	0x3cc97014	0.024589576
16	0x3d4bc4b8	0.049748152
17	0xbd99696b	-0.0749081
18	0xbb581c48	-0.0032975841
19	0x3d43a279	0.047762368
20	0x3d3d4a1f	0.046213266
21	0x3d76bb85	0.060237426
22	0xbd55d269	-0.052202616
23	0x3d540cd3	0.051770043
24	0xbdb25b16	-0.087087795
25	0xbd7574dc	-0.0599259
26	0xbd16e649	-0.03684071
27	0xbac18a44	-0.0014765938
28	0x3d6cd7de	0.057823054
29	0xbdc3fd9f	-0.09569859
30	0x3d216458	0.039402336
31	0xbda7ef69	-0.08199961
32	0xbaf4435e	-0.00186358
33	0x3c28f648	0.010312624
34	0xbd4efee6	-0.05053606
35	0xbc70491f	-0.014665871
36	0xbd3e0c0f	-0.04639822
37	0xbda8b5b2	-0.08237781
38	0x3d94c853	0.07264771
39	0xbd5d7ff0	-0.05407709
40	0x3bf3b4b6	0.007437314
41	0x3d56b5bc	0.05241941
42	0xbd8f029a	-0.06982918
43	0xbd9c57d3	-0.07633939
44	0x3c92e1d5	0.01792995
45	0x3d3698e9	0.04457942
46	0x3cab539f	0.020913897
47	0x3d19aae7	0.0375165
48	0xbb53fdb7	-0.003234727
49	0x3d5bc52f	0.053654846
50	0xbc0cf85a	-0.0086041335
51	0xbddfc445	-0.10926107
52	0xbdb4b1e6	-0.08822994
53	0xbce9c66d	-0.028537
54	0xbb9ce518	-0.0047880523
55	0x3d659fa4	0.05606045
56	0x3d4349b1	0.0476777
57	0x3dba5c01	0.090995796
58	0x3d25d4fe	0.04048633
59	0x3db01058	0.08596867
60	0x3ddcdbad	0.10784087
61	0x3cecd057	0.028907938
62	0xbc901116	-0.017586272
63	0xbcfdda16	-0.03098778
64	0xbc16da15	-0.009207268
65	0x3d9fa0af	0.0779432
66	0x3c52b17d	0.012859699
67	0x3db94bd4	0.09047666
68	0xbda61983	-0.08110335
69	0xbd996abb	-0.0749106
70	0xbcd9273e	-0.02650797
71	0x3d9126b0	0.07087457
72	0x3cb93ffc	0.022613518
73	0x3d170353	0.036868405
74	0xbd3057c7	-0.04305246
75	0x3d08c0f5	0.033387143
76	0x3dda7a9a	0.10667916
77	0x3bad7f7d	0.005294739
78	0xbd4a70f8	-0.04942414
79	0xbd31d4fc	-0.04341601
80	0x3cd201a6	0.025635552
81	0x3d858ac8	0.06520611
82	0xbd09296c	-0.03348677
83	0xbd9f6f4e	-0.077849016
84	0x3d71d684	0.05904247
85	0x3d8f083b	0.06983992
86	0x3d4108ce	0.047127537
87	0x3cb565d4	0.022143282
88	0x3dcdc318	0.10046977
89	0xbd7ee8ee	-0.062233858
90	0x3d2f6b71	0.042827073
91	0x3c6c907f	0.014438747
92	0x3c05a8af	0.008157893
93	0xbd31192d	-0.0432369
94	0x3dcc2a8c	0.09969053
95	0x3dc5d327	0.09659415
96	0x3d4d33ac	0.050098106
97	0x3d2804ef	0.04102033
98	0xbd815203	-0.063144706
99	0x3d79ce0c	0.060987517
100	0x3d7b4a4c	0.061350152
101	0x3ca0c543	0.019625312
102	0x3d929fb5	0.07159368
103	0xbd9073d7	-0.07053345
104	0x3ce0566b	0.027384957
105	0xbce9dddf	-0.02854818
106	0xbd9a0300	-0.075201035
107	0x3dd4d42c	0.10392031
108	0x3d6303ea	0.055423655
109	0xbd9036c1	-0.070416935
110	0x3d652b29	0.055949364
111	0xbde87010	-0.11349499
112	0xbd52fc53	-0.051510166
113	0x3dcb5348	0.09927994
114	0xbd7bb635	-0.061453063
115	0xbd8b6696	-0.06806676
116	0xbdd37d19	-0.10326595
117	0x3cb4560d	0.022013688
118	0x3da1dc28	0.079033196
119	0x3dade0d8	0.08490151
120	0x3dd18e95	0.102322735
121	0xbd5daed4	-0.054121807
122	0xbcf800cc	-0.030273817
123	0xbc96b4f2	-0.018396828
124	0xbb22240e	-0.0024740729
125	0x3d80bf1f	0.062864535
126	0x3cc0cac2	0.023534182
127	0x3d976677	0.073925905
128	0xbdb83713	-0.089948796
129	0x3d09aa6c	0.033609793
130	0x3ca21155	0.019783655
131	0xbc6c2419	-0.014412903
132	0x3d1c9a5f	0.038233157
133	0xbd96fde6	-0.07372646
134	0xbdc17026	-0.09445219
135	0x3c971b2c	0.018445574
136	0xbd953675	-0.072857775
137	0xbdaf0e54	-0.08547655
138	0xbd957774	-0.072981745
139	0x3d290bf3	0.04127116
140	0xbdc4658d	-0.09589682
141	0x3d80da92	0.06291689
142	0xbdae0203	-0.084964775
143	0x3c85f75c	0.016353302
144	0x3d8ebac5	0.06969217
145	0xbc25827d	-0.010101912
146	0xbc5891f1	-0.013218389
147	0xbd0a18f2	-0.033715196
148	0xb98d8eff	-0.00027000156
149	0x3d147c92	0.036251612
150	0xbdf0820b	-0.11743554
151	0xbdb24cb1	-0.08706034
152	0x3dc5949b	0.09647485
153	0xbd089e22	-0.033353932
154	0x3d632f74	0.055465177
155	0x3dab149f	0.083535425
156	0x3dac17ad	0.08402953
157	0x3d351d2c	0.044217274
158	0x3d85149d	0.06498072
159	0x3d4dfd17	0.050290193
160	0xbde47c0d	-0.11156473
161	0xbdd82208	-0.10553366
162	0xbd39fc42	-0.045406587
163	0x3debd0a1	0.11514402
164	0x3def3810	0.11680615
165	0xbd0d4d4f	-0.034497555
166	0xbd25e936	-0.04050561
167	0xbd9625cb	-0.07331427
168	0x3d88f9d5	0.06688277
169	0x3d95a516	0.07306878
170	0x3dcc0215	0.099613346
171	0x3d4c2e9a	0.04984913
172	0xba1d0383	-0.0005989598
173	0xbc7ec760	-0.015550464
174	0x3c83deb1	0.016097398
175	0x3ddecbf2	0.10878743
176	0xbca6e63f	-0.020373462
177	0x3c69514e	0.014240576
178	0x3d9dcbaa	0.077048615
179	0xbae1b6e0	-0.0017220639
180	0x3b83e4b0	0.0040250644
181	0xbd01e3ee	-0.03171151
182	0xbd8729dc	-0.06599781
183	0xbc1344fb	-0.008988614
184	0x3d69c0ce	0.05706864
185	0xbd4bc2ec	-0.04974644
186	0x3cf31e73	0.029677605
187	0x3d24e824	0.04026045
188	0x3dea3442	0.11435749
189	0xbc287015	-0.010280629
190	0x3df1d6e5	0.11808566
191	0x3d991744	0.07475141
192	0xbde78678	-0.11304945
193	0xbb84e509	-0.0040556234
194	0xbd559f65	-0.052153964
195	0x3d543f94	0.051818445
196	0x3d88fd42	0.0668893
197	0x3d0fb7ab	0.03508727
198	0xbdd995ae	-0.10624252
199	0xbcb56591	-0.022143157
200	0xbcf83f7b	-0.030303707
201	0xbd2201fd	-0.039552677
202	0xbb7b2b9d	-0.0038325556
203	0xbd9e7cd3	-0.07738652
204	0x3dbbb4d9	0.09165353
205	0x3dce96d7	0.10087364
206	0xbdbc1482	-0.09183599
207	0xbaa42f20	-0.0012526251
208	0x3cea20f2	0.028580163
209	0xbda751f9	-0.08169932
210	0x3da9cab0	0.08290613
211	0x3dd9e71c	0.10639784
212	0xbd2b200c	-0.04177861
213	0x3c046eb2	0.008083032
214	0x3d9432c0	0.07236242
215	0xbc016e1b	-0.007899786
216	0x3db5c0f9	0.08874697
217	0xbb73908a	-0.003716501
218	0xbd55462a	-0.052068867
219	0xbd57c85a	-0.052681305
220	0xbcc17523	-0.023615425
221	0xbd99c676	-0.075085565
222	0x3dbfa721	0.09358049
223	0x3c5a6e2f	0.013331934
224	0xbd9dcd97	-0.07705229
225	0x3d8d73d3	0.06906857
226	0x3cf4904d	0.029853964
227	0xbda6bb1e	-0.081411585
228	0xbce807f7	-0.02832411
229	0x3c5f2c80	0.0136214495
230	0x3d1bc266	0.03802719
231	0xbca71e71	-0.020400258
232	0xbdd5891b	-0.104265414
233	0x3daea503	0.08527567
234	0x3d84bcd8	0.064813316
235	0xbcb9a9ee	-0.022664037
236	0xbce2dcfd	-0.027693266
237	0x3da6887b	0.081315
238	0x3ce2a547	0.027666701
239	0x3d93bf75	0.07214252
240	0x3cdee6bc	0.027209632
241	0x3c30903b	0.010776575
242	0x3dd8d4cd	0.105874635
243	0xbc866c38	-0.016409025
244	0x3d7d75cd	0.06187992
245	0x3d87d9cc	0.06633338
246	0xbbc03d68	-0.005866695
247	0x3d990343	0.07471325
248	0xbdac8054	-0.08422914
249	0x3dbfd7f9	0.093673654
250	0x3df66ee7	0.12032872
251	0xbd5ce4d1	-0.053929154
252	0xbdb0386c	-0.086045116
253	0xbd11ab5b	-0.035563808
254	0xbd81da6b	-0.06340488
255	0x3e044567	0.129171

arith.constant11 f4 [32, 1, 5, 6]
0	0x3d3da92d	0.046303917
1	0xbd2d7654	-0.042349175
2	0xbdc72db8	-0.09725517
3	0xbcaefb03	-0.021359926
4	0xbe0e59aa	-0.13901392
5	0xbc30632f	-0.010765835
6	0x3e42e0cc	0.19031066
7	0xbdc96897	-0.09834402
8	0x3e17f621	0.14839984
9	0x3de0bd98	0.10973662
10	0xbd8fa700	-0.070142746
11	0xbc30c127	-0.010788239
12	0x3e2bf24c	0.16791648
13	0xbd86de90	-0.06585419
14	0xbb7692a4	-0.0037624026
15	0xbc8f1b5f	-0.017469106
16	0xbe14207f	-0.14465521
17	0xbe4363ff	-0.19081114
18	0x3e3c9e84	0.18419844
19	0xbcee77d7	-0.029109878
20	0x3cad40ef	0.021149127
21	0x3de1da8f	0.11028015
22	0xbd5a3649	-0.053274427
23	0x3b8ce498	0.0042997114
24	0xbd16310b	-0.036667865
25	0xbe0a6f46	-0.1351901
26	0x3d25803a	0.04040549
27	0x3d59c88f	0.053169783
28	0xbd8ab4a9	-0.067727394
29	0x3dd7f34e	0.105444536
30	0xbdc78a3b	-0.09743162
31	0x3c62f85d	0.01385316
32	0xbe22fecf	-0.15917514
33	0xbd3d593e	-0.046227686
34	0xbdb155a1	-0.086589105
35	0x3d41d09d	0.04731809
36	0x3cee7120	0.029106677
37	0x3d95c654	0.07313219
38	0x3e2891c0	0.16461849
39	0xbcaf52c4	-0.02140177
40	0xbd171789	-0.03688768
41	0xbcdfed21	-0.027334752
42	0x3d8516d5	0.064984955
43	0xbc34c7f5	-0.011034002
44	0x3e1af034	0.15130693
45	0xbe20019a	-0.15625611
46	0x3cef22e0	0.029191434
47	0xbde47841	-0.11155749
48	0x3dcdfb81	0.10057736
49	0xbde3dd02	-0.11126138
50	0x3d68e5f7	0.056859937
51	0xbe3678a7	-0.17819463
52	0xbe1027fc	-0.14077753
53	0xbd8518e4	-0.06498888
54	0x3dbad2bb	0.09122225
55	0x3d8adcc2	0.067803875
56	0xbbe9e663	-0.00713806
57	0x3daea142	0.08526851
58	0x3da4a558	0.08039349
59	0xbd7cc77a	-0.061713673
60	0xbe28ff91	-0.16503741
61	0xbc28a231	-0.010292576
62	0x3be8cb6b	0.0071043274
63	0xbbeefa8a	-0.00729305
64	0x3d3e475f	0.046454784
65	0xbd82a6dd	-0.06379483
66	0xbdbc9a9a	-0.092091754
67	0x3d5ef996	0.054437242
68	0xbe2e2bd0	-0.170089
69	0x3d93f6a3	0.072247766
70	0xbcd89117	-0.026436372
71	0x3ac92d60	0.0015348606
72	0x3ccec732	0.025241468
73	0x3d2a97ba	0.041648604
74	0xbdcd9c3e	-0.100395665
75	0xbd3422b9	-0.043978427
76	0x3d82eb4c	0.063925356
77	0x3dfaf25d	0.122532584
78	0x3b57cdc9	0.0032929054
79	0xbe121db3	-0.14269142
80	0x3de589c7	0.112079196
81	0x3e0ad30d	0.13557072
82	0x3e3fcc89	0.18730368
83	0xbc17a1dd	-0.0092549
84	0xbdbf09bc	-0.093280286
85	0x3ddf0989	0.108904906
86	0xbd70c593	-0.05878217
87	0xbdde7f7a	-0.10864158
88	0x3e38ef43	0.18060021
89	0xbcdd6686	-0.027026426
90	0x3d1eff0c	0.03881745
91	0x3e2a9f91	0.16662432
92	0xbe137312	-0.14399365
93	0x3be64376	0.007027085
94	0x3d0f6e1e	0.035017125
95	0xbdaaf85a	-0.083481506
96	0xbd5278a9	-0.0513846
97	0x3dd7eb66	0.105429456
98	0x3e212f50	0.15740705
99	0xbd9505b3	-0.07276478
100	0x3e1af35c	0.15131897
101	0xbdca0b95	-0.0986549
102	0xbd9c8397	-0.07642286
103	0x3dde52d7	0.10855644
104	0xbe2c98ba	-0.16855136
105	0x3e0447d2	0.12918022
106	0x3db28dac	0.08718428
107	0xbcd872cf	-0.026421933
108	0xbc915805	-0.017742166
109	0xbe14a4b4	-0.14515954
110	0x3dd632bb	0.10458895
111	0x3e192fc3	0.14959626
112	0x3d7f4365	0.06232013
113	0x3d4d8cdb	0.05018316
114	0x3de68b16	0.11256997
115	0xbc809633	-0.01569662
116	0xbd80763e	-0.06272553
117	0x3cbbc9aa	0.02292331
118	0x3d1590fd	0.036515225
119	0xbdc15151	-0.09439338
120	0xbc31ce82	-0.010852458
121	0x3dbd199f	0.092334025
122	0x3e0107bb	0.12600605
123	0xbd8e3e35	-0.06945459
124	0xbda889bb	-0.08229395
125	0xbe21beb9	-0.15795411
126	0xbdc6705f	-0.09689402
127	0xbcf4876c	-0.02984973
128	0x3a8fa80c	0.0010960116
129	0x3d715309	0.05891708
130	0x3e06ed92	0.13176563
131	0xbced647f	-0.028978584
132	0xbe18bdff	-0.14916228
133	0x3dcb1164	0.099154264
134	0x3db23ae3	0.08702638
135	0xbdb207e8	-0.08692914
136	0x3ccd6ecf	0.025077252
137	0x3dab6594	0.08368984
138	0xbcc833bf	-0.024438737
139	0xbd2e2bd9	-0.042522285
140	0xbd65d3ba	-0.05611012
141	0xbd99fc39	-0.07518811
142	0x3dedd43d	0.11612747
143	0xbd9c2bf5	-0.07625572
144	0xbe383f20	-0.1799283
145	0x3d36ec49	0.044658933
146	0xbb271e10	-0.0025500096
147	0x3db9b47e	0.09067629
148	0x3c22c1c6	0.0099338945
149	0x3d3d2cc3	0.046185266
150	0x3d84f458	0.06491917
151	0x3db24873	0.08705225
152	0xbbfb39bd	-0.007666795
153	0x3d4670aa	0.04844729
154	0x3ca46a55	0.020070234
155	0xbe16e9fe	-0.14737698
156	0x3c3f1acd	0.011664105
157	0x3d527c90	0.051388323
158	0x3c21a083	0.009864929
159	0xbd4db2e6	-0.05021944
160	0x3db821b8	0.08990806
161	0x3df8c977	0.12147801
162	0xbddbc00e	-0.10729991
163	0x3e175fd2	0.14782646
164	0x3e30642b	0.17225711
165	0xbdd3717b	-0.10324379
166	0xbe1b38cf	-0.1515839
167	0x3dfc679a	0.12324448
168	0x3dd5ba76	0.10435955
169	0x3e3ba1d6	0.18323454
170	0x3dbb1416	0.091346905
171	0x3dbc7645	0.092022456
172	0x3dab3538	0.0835976
173	0x3dd6108b	0.10452374
174	0xbe14b87e	-0.14523503
175	0x3d9911dc	0.074741095
176	0xbdd2318b	-0.10263356
177	0x3de9fcaf	0.11425149
178	0xbdc41baa	-0.09575589
179	0x3dc9861b	0.09840032
180	0xbd6c9a67	-0.057764437
181	0x3e094bda	0.13407841
182	0x3dd0e447	0.101997904
183	0x3da9a2ea	0.082830265
184	0x3e0ad932	0.13559416
185	0xbb91c7ff	-0.00444889
186	0xbdd1ebd5	-0.102500595
187	0x3db94b18	0.09047526
188	0x3d7136a6	0.058890007
189	0x3db781a8	0.08960277
190	0xbddfcfe4	-0.10928324
191	0x3e407102	0.18793109
192	0xbd379290	-0.044817507
193	0xbe237b44	-0.15964991
194	0x3da57c41	0.0808034
195	0xbdca2abb	-0.098714314
196	0xb90f975c	-0.00013693928
197	0x3e19cf08	0.15020382
198	0x3e06f975	0.13181098
199	0x3d4dd092	0.050247736
200	0xbe199e87	-0.1500188
201	0x3d9a051f	0.07520508
202	0xbdfba4fc	-0.12287328
203	0x3df203b0	0.118171096
204	0xbd09e40f	-0.03366476
205	0x3d910c07	0.07082372
206	0xbe307433	-0.17231826
207	0x3db2ff7a	0.087401345
208	0xbe1414d3	-0.14461069
209	0x3dbfa208	0.09357077
210	0x3d0ab78e	0.033866458
211	0x3d26ce45	0.040724058
212	0x3e226572	0.15859011
213	0x3d5eb3b3	0.054370593
214	0xbe0531d0	-0.13007283
215	0x3d43af8f	0.047774848
216	0xbd2e94fe	-0.04262256
217	0x3de599ed	0.11211
218	0x3ddc786c	0.10765156
219	0xbc00cd7b	-0.00786149
220	0xbddbc31b	-0.10730573
221	0xbdbefc6e	-0.09325491
222	0xbda6c69b	-0.0814335
223	0xbd16f546	-0.036855005
224	0xbd70dbfd	-0.058803547
225	0xbe1c46db	-0.15261404
226	0xbe0d765a	-0.13814679
227	0x3e0b5164	0.13605267
228	0xbd84b584	-0.06479934
229	0x3d3a7a4f	0.0455268
230	0xbd8f4c0e	-0.06996928
231	0x3df5c2d8	0.12000054
232	0xbe1cd702	-0.15316394
233	0xbe38b5e8	-0.18038142
234	0x3cf9ea6e	0.030507293
235	0x3e1add6d	0.1512353
236	0x3e1a6ab5	0.15079768
237	0xbe396279	-0.1810397
238	0xbe326683	-0.17421918
239	0x3dab4630	0.083629966
240	0xbe0b3447	-0.13594161
241	0xbe1f1800	-0.15536499
242	0x3cf56bb2	0.02995858
243	0xbd5728d1	-0.05252916
244	0x3df6e849	0.12056024
245	0xbda6767d	-0.081280686
246	0xbe0695f2	-0.13143137
247	0x3ce4a60f	0.027911214
248	0x3d7a91b8	0.061174124
249	0xbd8711c6	-0.06595187
250	0x3d8d1ec7	0.06890636
251	0x3e0400e5	0.12890966
252	0xbb56e15d	-0.0032788136
253	0xbe4b8fec	-0.1987912
254	0xbe2cdc21	-0.16880848
255	0x3d3d9097	0.04628047

arith.constant12 f4 [2, 64]
0	0x3e6bf57d	0.23042865
1	0x3e294be2	0.16532853
2	0x3ea6b5a6	0.32560462
3	0xbe869dc0	-0.2629223
4	0x3dc877a9	0.09788448
5	0xbc11ae2f	-0.008891626
6	0x3b4caff8	0.0031232815
7	0x3e3da298	0.18519056
8	0x3d8ac15a	0.0677516
9	0x3d59ac0c	0.053142592
10	0x3e990b86	0.29891604
11	0x3e06718d	0.13129254
12	0xbe132705	-0.14370354
13	0xbe77e976	-0.24210152
14	0x3e3c5818	0.1839298
15	0xbe898ad6	-0.26863736
16	0xbe61743c	-0.22016996
17	0x3d7f30c6	0.062302373
18	0x3cde02c3	0.027100926
19	0x3d96b29b	0.07358285
20	0xbdfba787	-0.12287813
21	0x3e837501	0.25675204
22	0xbe048669	-0.12941898
23	0xbbf93bee	-0.007606021
24	0x3da2c025	0.07946805
25	0x3e94dcda	0.29074746
26	0x3e909731	0.2824035
27	0xbe0f4fc5	-0.13995273
28	0x3e683c89	0.22679342
29	0xbe83aecc	-0.25719297
30	0xbeb2f819	-0.34954908
31	0xbe646647	-0.2230464
32	0xbe30d345	-0.17268093
33	0x3d29a1c7	0.04141405
34	0xbe68acd2	-0.22722176
35	0xbe37e7f0	-0.17959571
36	0xbd788009	-0.06066898
37	0xbe0bcf68	-0.13653338
38	0x3dc48f66	0.095976636
39	0x3e227aef	0.15867208
40	0x3df20618	0.118175685
41	0xbd83e272	-0.064396754
42	0xbe9e8378	-0.30959678
43	0x3e4d9de0	0.20079756
44	0xbe9d30b8	-0.30701232
45	0xbe1efdcb	-0.15526502
46	0xbe310b1d	-0.17289396
47	0xbe8ebd27	-0.27878687
48	0x3e54b8ed	0.20773669
49	0x3e8ed861	0.2789946
50	0xbdf8b9e1	-0.121448286
51	0xbd81c98d	-0.06337271
52	0x3e69dac4	0.22837359
53	0xbe50ace5	-0.20378454
54	0xbe25a29b	-0.1617531
55	0x3b4b55e4	0.0031026537
56	0x3e986634	0.29765475
57	0xbe9cf30d	-0.30654183
58	0xbe194141	-0.14966299
59	0xbdaf635f	-0.085638754
60	0x3e912904	0.28351605
61	0x3d604b1e	0.054759137
62	0x3e9c35ef	0.30509898
63	0x3e27f436	0.16401753
64	0x3e5fb57b	0.21846573
65	0xbdaccdb6	-0.08437674
66	0xbc7f547d	-0.015584108
67	0x3d61a72c	0.05509107
68	0x3e91f89c	0.28509986
69	0xbdb9c589	-0.0907088
70	0xbe3b7021	-0.18304493
71	0x3dfe865d	0.124279715
72	0x3e00943e	0.1255655
73	0x3d4ce58b	0.050023597
74	0x3e92ad1e	0.28647703
75	0xbe053fcc	-0.13012618
76	0xbe8c49b3	-0.27399978
77	0xbce67d3c	-0.028135888
78	0xbdd71e72	-0.10503854
79	0xbb8f7a18	-0.0043785684
80	0x3d56a59d	0.052404035
81	0x3e63bf1f	0.22240876
82	0xbe4dec18	-0.20109594
83	0x3dc2ed85	0.095179595
84	0x3ca41c2a	0.02003296
85	0xbdd92748	-0.106031954
86	0xbe85a2ed	-0.26100865
87	0x3deb7b5c	0.11498138
88	0x3e20a99c	0.15689701
89	0x3d9170ec	0.07101616
90	0xbd31e860	-0.0434345
91	0xbe302eb9	-0.17205323
92	0x3e17d0a6	0.14825687
93	0x3e87d802	0.26531988
94	0xbe0b04e5	-0.13576086
95	0x3d98498c	0.07435903
96	0xbe8759a7	-0.26435587
97	0xbea78cb4	-0.32724535
98	0xbe1039f1	-0.14084603
99	0x3d349ac0	0.044092894
100	0xbe1a9907	-0.15097438
101	0x3bb51761	0.0055264686
102	0x3d857a7a	0.06517501
103	0x3e43b17f	0.19110678
104	0xbe1cf025	-0.15325983
105	0xbea6c07d	-0.32568732
106	0x3dc5c69d	0.09657023
107	0xbe49b896	-0.1969932
108	0x3de0ce51	0.10976852
109	0xbe32d1f8	-0.17462909
110	0x3da90a4e	0.082539186
111	0x3e1476fa	0.14498511
112	0x3cb2ba65	0.021817395
113	0xbdf7a84e	-0.120926484
114	0xbe7bb582	-0.24580958
115	0xbe303d75	-0.17210944
116	0xbea35d52	-0.31907135
117	0x3e4cc57b	0.19997208
118	0x3e3091d7	0.17243133
119	0x3d2771e0	0.040880084
120	0xbe8559e8	-0.26045156
121	0x3e781201	0.24225618
122	0xbd1a5933	-0.037682723
123	0x3d852979	0.06502051
124	0xbe3aed22	-0.18254521
125	0x3e12527f	0.14289282
126	0x3c74eead	0.014949483
127	0xbe880202	-0.26564032

arith.constant13 f4 [64, 64]
0	0xbe364472	-0.17799547
1	0x3c890f8d	0.016731048
2	0x3e2dba4e	0.16965601
3	0xbe4e624c	-0.20154685
4	0x3da0ff62	0.078612104
5	0xbe479a4d	-0.19492455
6	0xbe19d0aa	-0.15021005
7	0xbdf8e4c7	-0.12153011
8	0x3b484948	0.0030561257
9	0x3bf21de7	0.0073888185
10	0xbe5a23b7	-0.21302687
11	0xbe43d6d1	-0.19124915
12	0x3e066bd8	0.13127077
13	0x3e23a259	0.159799
14	0x3d9575ee	0.07297884
15	0x3de779a9	0.11302502
16	0xbced9081	-0.028999569
17	0x3c83536c	0.01603099
18	0x3d8ee906	0.069780394
19	0xbe023ab7	-0.1271771
20	0x3e5161c0	0.20447445
21	0x3e1ab863	0.151094
22	0xbc4b7323	-0.012417587
23	0x3d4d1fee	0.05007928
24	0xbe31e2d7	-0.17371689
25	0xbe1d2d73	-0.15349369
26	0xbdbf4b8d	-0.09340582
27	0x3e2bb8b6	0.1676968
28	0xbe46df34	-0.19421083
29	0x3d7d4e60	0.061842322
30	0x3dfb484a	0.122696474
31	0xbe10c114	-0.14136153
32	0x3e4fd494	0.20295936
33	0x3d877fc4	0.06616166
34	0x3bbbf3c9	0.0057358486
35	0x3e38d757	0.18050896
36	0x3dc68fcb	0.09695395
37	0x3e40b3e9	0.1881863
38	0x3da374c8	0.07981259
39	0x3d2ee339	0.042697165
40	0x3d685345	0.056720037
41	0x3e191bcb	0.14952008
42	0xbe2b2162	-0.16711953
43	0xbd8a4c85	-0.06752876
44	0xbdeed327	-0.11661368
45	0xbe173195	-0.14765008
46	0x3de95e5a	0.11394949
47	0xbe4e5060	-0.20147848
48	0xbdfdff9b	-0.124022685
49	0x3e42e0c3	0.19031052
50	0x3e40cb14	0.18827468
51	0x3e4071c8	0.18793404
52	0xbe0279aa	-0.12741724
53	0x3e3d3fbc	0.18481344
54	0xbe2a85f3	-0.1665266
55	0xbd6fc4f7	-0.05853745
56	0xbe4b232b	-0.19837634
57	0x3e51a08e	0.20471403
58	0x3ca45cea	0.020063836
59	0xbdd4b310	-0.10385716
60	0xbe31fd7e	-0.17381856
61	0x3dd28033	0.10278358
62	0xbe4e6cf0	-0.20158744
63	0xbe49c10d	-0.1970255
64	0x3db2402e	0.087036476
65	0xbd86a0b2	-0.06573619
66	0x3cf63dc8	0.030058756
67	0xbdd073ff	-0.101783745
68	0x3dcabf9a	0.09899826
69	0xbdd2718c	-0.102755636
70	0xbdbe060e	-0.092784986
71	0x3ce8bb68	0.028409675
72	0x3e5789cb	0.21048658
73	0x3bc2b8e0	0.005942449
74	0x3db9ab2e	0.09065853
75	0x3e0dc8d5	0.13846143
76	0x3d20ea04	0.039285675
77	0x3e085237	0.13312612
78	0xbdd401d7	-0.103519134
79	0x3bbc4480	0.0057454705
80	0xbe1f43e1	-0.15553237
81	0x3dbfd802	0.09367372
82	0xbda3872e	-0.07984768
83	0xbd0a42f0	-0.033755243
84	0xbcd935a8	-0.026514843
85	0x3cf5c608	0.030001655
86	0xbd80c78e	-0.06288062
87	0xbc705e20	-0.014670879
88	0xbd8d353a	-0.06894918
89	0xbbd3c540	-0.006462723
90	0x3e5a25b3	0.21303444
91	0xbd8fbd8e	-0.070185766
92	0xbda1c864	-0.078995496
93	0x3b013780	0.0019716918
94	0x3e25865d	0.16164537
95	0x3dae26aa	0.08503468
96	0xbcf8bed8	-0.030364439
97	0xbc93ce28	-0.018042639
98	0x3dc76cfa	0.097375825
99	0xbcf19540	-0.029490113
100	0x3d664f9c	0.056228265
101	0xbde1a9f5	-0.11018745
102	0x3c98c9d0	0.01865092
103	0x3e5b0067	0.21386872
104	0xbd77c938	-0.06049463
105	0x3e320929	0.17386307
106	0xbcd45a40	-0.02592194
107	0x3dee9426	0.11649351
108	0x3e0ae155	0.1356252
109	0x3d2ec2ec	0.04266636
110	0xbdc8b966	-0.09800987
111	0x3da8f132	0.08249129
112	0x3df31346	0.118689105
113	0x3df838aa	0.12120183
114	0xbdc3886e	-0.09547506
115	0x3db3038a	0.087409094
116	0xbdced5a2	-0.10099341
117	0x3cd62de8	0.026144937
118	0xbdd45edb	-0.10369655
119	0xbe3ab1c3	-0.18231873
120	0x3ca2ef78	0.019889578
121	0x3e4791d7	0.19489227
122	0x3dd45d66	0.10369377
123	0xbd81f172	-0.0634488
124	0x3ce20420	0.027589858
125	0xbe5a695c	-0.21329254
126	0x3d98fa52	0.0746962
127	0x3e17be9f	0.1481881
128	0xbd8b0048	-0.06787163
129	0x3cfb4e5d	0.030677015
130	0x3e44969c	0.19198078
131	0xbdd470a8	-0.1037305
132	0x3b83abf3	0.0040183007
133	0xbe494aad	-0.19657393
134	0x3d0f56f5	0.034995038
135	0xbdc3bcc9	-0.09557492
136	0xbd081c1a	-0.033229925
137	0xbe034e80	-0.12822914
138	0x3e2ded8f	0.16985153
139	0x3e48ddea	0.19615903
140	0x3d5f0794	0.054450586
141	0xbd8db04d	-0.06918392
142	0x3cd492b2	0.025948856
143	0x3e0f2821	0.13980152
144	0x3d3365ae	0.04379814
145	0xbdbbb9bb	-0.09166285
146	0xbd884ee6	-0.06655674
147	0x3dbd96b1	0.09257258
148	0x3e418265	0.18897398
149	0xbe10b373	-0.14130954
150	0xbdc9d794	-0.098555714
151	0x3cd3834e	0.025819447
152	0x3de32b59	0.11092252
153	0xbc7464cb	-0.014916609
154	0x3d2b54df	0.041828986
155	0xbd5a0d65	-0.05323543
156	0x3de9ebdc	0.1142194
157	0x3dcceb1c	0.10005781
158	0x3d2f3c33	0.04278202
159	0x3e301e77	0.17199121
160	0xbe3c6baf	-0.18400453
161	0xbc3df3a8	-0.011593737
162	0x3e137bac	0.14402646
163	0xbbd4fb6d	-0.006499699
164	0x3e0dadc0	0.13835812
165	0x3e10b4bf	0.14131449
166	0x3de74e2b	0.11294206
167	0xbcd9512b	-0.026527962
168	0x3e1852f5	0.14875396
169	0xbd95c005	-0.073120154
170	0xbd969709	-0.073530264
171	0x3e208bec	0.15678376
172	0xbe12f23e	-0.1435022
173	0x3e0e411d	0.13892026
174	0x3e570d09	0.21001066
175	0x3d248fbb	0.040176135
176	0x3e4e30d5	0.20135815
177	0x3d3a825c	0.045534477
178	0xbd61daea	-0.055140413
179	0x3ddad6b9	0.10685486
180	0x3d717f58	0.058959335
181	0xbd3920db	-0.04519735
182	0xbdc45576	-0.09586613
183	0xbdfd191f	-0.12358307
184	0xbe2bf8c1	-0.16794111
185	0xbe3cf388	-0.18452275
186	0x3d38875d	0.045050967
187	0x3c0160a8	0.00789658
188	0x3d47b357	0.048755016
189	0x3d81889f	0.063248865
190	0x3d63e01a	0.05563364
191	0x3c864b61	0.016393365
192	0x3e104150	0.14087415
193	0xbe4d3347	-0.20039092
194	0xbdbba835	-0.09162942
195	0x3e07a0a9	0.1324488
196	0xbddb144f	-0.10697233
197	0xbbdcd3a8	-0.0067390986
198	0xbe2cb2aa	-0.1686503
199	0x3d466b3e	0.048442118
200	0xbd9056b9	-0.07047791
201	0xbe1daed7	-0.15398727
202	0x3e2b88ba	0.16751376
203	0xbce7fef4	-0.028319813
204	0x3d749855	0.059715588
205	0xbda7ce3e	-0.081936345
206	0xbe00ba25	-0.12571009
207	0xbe78b1a9	-0.24286522
208	0xbe121a23	-0.14267783
209	0xbca49004	-0.020088203
210	0xbd5bea04	-0.05368997
211	0x3dc85d83	0.09783461
212	0x3d3dbf79	0.04632518
213	0x3e3f75e0	0.1869731
214	0x3e85b43d	0.26114073
215	0x3d9f10f8	0.077669084
216	0x3ccc3475	0.024927357
217	0xbe2c2073	-0.16809253
218	0x3e3a5560	0.1819663
219	0x3e1193ad	0.1421649
220	0x3e0c2c4e	0.13688776
221	0xbe0c4875	-0.13699515
222	0x3d539a96	0.051661097
223	0x3e08d419	0.13362159
224	0xbe41fc3c	-0.18943876
225	0xbe259617	-0.16170536
226	0xbe7dd370	-0.24787688
227	0xbdba87da	-0.09107943
228	0xbe40600a	-0.18786636
229	0x3d6c53e8	0.057697207
230	0xbda15045	-0.07876638
231	0xba6c6fcd	-0.0009019345
232	0x3e2bdec5	0.16784199
233	0xbdee7c20	-0.11644769
234	0x3df629e4	0.12019709
235	0x3d0f9659	0.035055492
236	0x3d809c55	0.06279818
237	0x3dd76e1e	0.1051905
238	0xbc404e1e	-0.011737375
239	0xba87f92a	-0.0010373939
240	0xbcaf7562	-0.021418277
241	0x3e2a8e28	0.16655791
242	0xbe03a15b	-0.12854521
243	0xbe4c6264	-0.19959408
244	0x3e3c4552	0.18385819
245	0x3c5bb3ee	0.013409598
246	0x3e4774e6	0.19478187
247	0x3d75902b	0.059951942
248	0xbe4df5f3	-0.20113353
249	0x3e2e3eb3	0.17016105
250	0x3b2b3836	0.0026126034
251	0x3dfc8470	0.12329948
252	0x3daac81f	0.08338951
253	0xbd820ed9	-0.06350488
254	0x3db97591	0.09055627
255	0x3dc9ebd0	0.09859431

arith.constant27 f4 [256, 64]
0	0xbdb9ed2f	-0.09078442
1	0x3c3db4fd	0.0115787955
2	0xb8fc5131	-0.000120314195
3	0x3d108ce3	0.03529061
4	0xbdaa312e	-0.083101615
5	0x3d280c8b	0.041027587
6	0x3dc5a6ba	0.09650941
7	0x3dbd7a06	0.0925179
8	0xbd23a409	-0.039951358
9	0xbca0806c	-0.019592486
10	0xbd8637dc	-0.06553623
11	0x3d38ff9c	0.045165643
12	0x3d0c9682	0.034323223
13	0x3dcc85eb	0.0998648
14	0xbd2cd915	-0.042199213
15	0xbde3eea6	-0.11129503
16	0xbdfe8ff2	-0.12429799
17	0x3e139aa1	0.14414455
18	0x3ce5191c	0.027966075
19	0x3e15925c	0.14606613
20	0x3e0201b9	0.1269597
21	0xbdef1fbf	-0.11675977
22	0xbda52bff	-0.08065032
23	0xbdb5b171	-0.08871735
24	0x3e0d7abe	0.13816354
25	0x3d973c87	0.073845915
26	0xbcd1d177	-0.025612576
27	0x3db11bc5	0.08647875
28	0xbc26fd88	-0.0101922825
29	0xbda32b53	-0.07967248
30	0xbab49870	-0.001377834
31	0xbd642286	-0.055696987
32	0x3d9b6f64	0.075896055
33	0xbde959b7	-0.11394065
34	0xbd82e649	-0.0639158
35	0xbdc5bfcb	-0.09655722
36	0xbde70acf	-0.112813585
37	0xbdd7513f	-0.10513543
38	0xbcd9c051	-0.026580961
39	0x3e03a818	0.12857091
40	0x3dd6f813	0.10496535
41	0x3d85ccab	0.06533178
42	0x3d8e705d	0.06955025
43	0xbde2c1f2	-0.110721484
44	0x3d18b71d	0.037284005
45	0xbe105e00	-0.14098358
46	0x3e0a68bb	0.13516514
47	0xbc3525c9	-0.011056372
48	0x3cfd627e	0.030930754
49	0xbdf484d8	-0.119394004
50	0x3ccb1867	0.02479191
51	0xbdc68300	-0.09692955
52	0x3dc74e43	0.09731724
53	0xbc1b8e54	-0.009494383
54	0x3db1a3bb	0.08673807
55	0x3c39a91a	0.011331821
56	0x3dd54c30	0.10414922
57	0xbdc9b034	-0.09848061
58	0x3da7dc0a	0.08196266
59	0x3df03b7c	0.11730096
60	0x3be2c80e	0.006920821
61	0xbc9944ec	-0.018709622
62	0x3dc740e7	0.09729176
63	0xbdf7bcdb	-0.12096568
64	0x3e1d7a17	0.15378605
65	0x3d8b52ac	0.06802878
66	0x3df45002	0.11929323
67	0xbda802e8	-0.08203679
68	0x3e06fe23	0.13182883
69	0xbdcc4df8	-0.09975809
70	0x3db5db43	0.088797115
71	0x3dc78f36	0.09744112
72	0x3d4a887b	0.049446564
73	0x3cae1e3d	0.021254653
74	0x3df8a46c	0.12140736
75	0x3b41e38b	0.002958509
76	0x3cd0a2f1	0.025468322
77	0x3bd23a97	0.006415676
78	0x3d976d85	0.07393936
79	0xbc8d7d92	-0.01727179
80	0xbdf2324b	-0.11825999
81	0xbdd41b65	-0.103567876
82	0x3dd693ea	0.10477431
83	0x3e05d170	0.13068175
84	0xbdf58c5d	-0.11989663
85	0x3d52cc5a	0.051464416
86	0xbdf3e23f	-0.119083874
87	0x3c66faac	0.014097851
88	0xbdaf1b0f	-0.08550083
89	0xbdd0e8a6	-0.10200624
90	0xbd9979f6	-0.07493965
91	0xbdbb5bb0	-0.091483474
92	0x3da53a05	0.08067707
93	0x3d8450ec	0.06460747
94	0x3d1c82a8	0.03821054
95	0x3d8b2ea7	0.067960076
96	0xbd7380ba	-0.059448935
97	0x3dd81ea2	0.10552718
98	0x3d27b23f	0.040941473
99	0x3cc6a19a	0.02424698
100	0x3e126094	0.14294654
101	0x3d8205cd	0.06348763
102	0x3cef21b3	0.029190874
103	0xbcbb61e5	-0.022873828
104	0x3d3d7321	0.046252374
105	0xbdd455b2	-0.103679076
106	0xbdaff175	-0.08590976
107	0xbd9cf692	-0.07664217
108	0x3db3a6e1	0.08772064
109	0xbbd3c527	-0.0064627114
110	0x3cd494b2	0.02594981
111	0xbdd6fdb3	-0.10497608
112	0xbcb913e8	-0.0225925
113	0x3e04f273	0.12983112
114	0x3dfa6d52	0.122278824
115	0x3d9eab1b	0.077474795
116	0xbda91afb	-0.08257099
117	0x3dce45bb	0.10071894
118	0xbd211fb9	-0.039336894
119	0x3ddae6bf	0.106885426
120	0xba3aa452	-0.00071198225
121	0xbc2a7195	-0.010403057
122	0x3c8441b4	0.016144611
123	0x3c3e385e	0.011610119
124	0xbd831385	-0.064002074
125	0x3d3c0e2c	0.045911953
126	0x3c4a6cb0	0.012355015
127	0x3d3939a7	0.045220997
128	0x3c000a11	0.0078149
129	0x3d58bac2	0.05291248
130	0x3dc63d20	0.096796274
131	0xbd67dd7d	-0.056607712
132	0xbd09506e	-0.03352397
133	0x3db0aff3	0.0862731
134	0xbd9d6315	-0.07684914
135	0x3df010b8	0.11721939
136	0xbdc7e6f1	-0.097608455
137	0x3da9890f	0.08278095
138	0x3d3ed72b	0.04659192
139	0x3e08662f	0.1332023
140	0x3d8db217	0.069187336
141	0xbcd0d9e4	-0.025494523
142	0x3e0bc5b0	0.1364963
143	0xbda955b4	-0.082683
144	0x3cf5db51	0.030011805
145	0x3d2278e6	0.03966608
146	0xbdc43547	-0.09580474
147	0xbd9c00ea	-0.07617362
148	0xbc993ec1	-0.018706681
149	0x3da4d16f	0.08047759
150	0x3bb9ec37	0.005673911
151	0xbdfe0eaa	-0.12405141
152	0x3e186e84	0.14885908
153	0x3d7be5a7	0.06149831
154	0xbdddebf2	-0.108360186
155	0x3dadd361	0.08487583
156	0xb8850742	-6.343286e-05
157	0xbc13612d	-0.0089953365
158	0xbdbe41f3	-0.092899226
159	0x3df967a5	0.12177972
160	0x3c1aae80	0.009441018
161	0xbd62fd8c	-0.055417582
162	0xbcca095f	-0.024662672
163	0x3d228668	0.03967896
164	0xbdf2abd1	-0.11849178
165	0x3d955cbe	0.0729308
166	0x3df06e76	0.11739819
167	0x3e054a28	0.1301657
168	0x3c44b68f	0.012006416
169	0xbda3a806	-0.07991032
170	0xbdaacf05	-0.08340267
171	0xbd14012e	-0.036133938
172	0xbd89bd36	-0.06725542
173	0xbde3deb6	-0.11126463
174	0x3b755325	0.0037433591
175	0xbde690e2	-0.11258103
176	0x3d9e9661	0.07743526
177	0xbb55cdd8	-0.0032623913
178	0xbcc6bcd2	-0.024259958
179	0x3d8a1da1	0.067439325
180	0x3debf9fe	0.115222916
181	0x3e0c589b	0.13705675
182	0x3bea77d4	0.007155398
183	0x3daddccd	0.0848938
184	0xbda8ad60	-0.08236194
185	0x3de63656	0.112408325
186	0x3e0429ee	0.1290662
187	0xbcd5680e	-0.026050594
188	0xbd2ebd9c	-0.042661294
189	0xbde94680	-0.113904
190	0xbc99f6ee	-0.018794503
191	0x3d9d84f2	0.07691373
192	0x3dd0738b	0.10178288
193	0x3d6766a9	0.05649439
194	0xbc4bccf1	-0.012438999
195	0xbdc18c67	-0.09450608
196	0xbd7f4228	-0.06231895
197	0xbbeb6598	-0.007183742
198	0xbdedef60	-0.11617923
199	0xbd3fafa7	-0.046798375
200	0x3c02b52c	0.007977765
201	0xbdcbdbb2	-0.09954013
202	0xbd7fd2d4	-0.06245692
203	0xbdfb920a	-0.12283714
204	0xbe066988	-0.13126194
205	0x3dd5cf29	0.10439903
206	0xbd6c8a78	-0.05774924
207	0x3dc42471	0.09577263
208	0x3d179d70	0.03701538
209	0x3df059a8	0.117358506
210	0x3dcb14e3	0.09916093
211	0x3dc982a5	0.098393716
212	0xbd8b79fd	-0.06810377
213	0x3d6a494d	0.05719881
214	0x3bc4b857	0.0060034203
215	0x3d1ffb69	0.039058123
216	0x3d945507	0.0724278
217	0x3d0b785d	0.034050334
218	0xbd8ed6ce	-0.069745645
219	0x3d0098e2	0.0313958
220	0x3dcfb990	0.10142815
221	0x3e01041e	0.12599227
222	0x3ccabba9	0.024747686
223	0xbd94e8ad	-0.07270942
224	0xbde0ce51	-0.10976852
225	0xbdfa8e9f	-0.12234234
226	0xbc868abc	-0.016423576
227	0xbb840aa5	-0.0040295892
228	0x3dc7f2af	0.09763085
229	0x3cb70e68	0.022345737
230	0x3e044586	0.12917146
231	0xbdaed4ce	-0.08536683
232	0x3d24b0ea	0.04020778
233	0xbdb7135b	-0.08939239
234	0xbc08022e	-0.008301301
235	0xbd363e5b	-0.04449306
236	0x3de0b42f	0.10971867
237	0x3dc534b8	0.09629196
238	0xbdd97646	-0.10618262
239	0xbc8ad089	-0.01694514
240	0x3d907001	0.07052613
241	0x3d8283e5	0.06372813
242	0xbd93e595	-0.07221524
243	0xbd80e56f	-0.06293761
244	0x3d23f0b9	0.040024493
245	0x3cbb0006	0.02282716
246	0xbc9ece83	-0.019385582
247	0x3df587fb	0.11988827
248	0xbd93548f	-0.07193863
249	0xbbddd542	-0.006769807
250	0xbc14590b	-0.009054433
251	0x3daba7f1	0.08381642
252	0xbddc22fd	-0.10748861
253	0x3dbf8400	0.09351349
254	0xbdf0278a	-0.117262915
255	0xbc17ecb6	-0.009272745

arith.constant28 f4 [256, 64]
0	0xbcf01ff6	-0.029312115
1	0x3d407352	0.046984978
2	0xbcea6c9d	-0.028616244
3	0x3d9641ab	0.07336744
4	0x3cf2fe20	0.029662192
5	0x3dc2205d	0.09478829
6	0x3d8438e2	0.06456162
7	0xbcbb4990	-0.022862226
8	0x3da29b21	0.07939745
9	0xbdaffbc1	-0.0859294
10	0x3d7ba5ae	0.0614373
11	0xbcc76d5b	-0.024344137
12	0xbdd35433	-0.10318794
13	0xbd47de9b	-0.048796277
14	0x3c24e2ab	0.0100638075
15	0xbd251af9	-0.040308926
16	0x3c94ca3c	0.01816284
17	0xbc7872ff	-0.015164136
18	0x3d4a5870	0.049400747
19	0xbc5153b3	-0.012776303
20	0xbd86857b	-0.06568428
21	0x3dc63ccc	0.09679565
22	0x3b2a6f84	0.002600641
23	0xbdfa5c1a	-0.12224598
24	0xbc8cdb79	-0.017194496
25	0xbc99276a	-0.018695552
26	0x3a6cbcd0	0.0009030821
27	0xbb3bd336	-0.0028659827
28	0x3d7e0f14	0.0620261
29	0x3ce3e39c	0.027818494
30	0x3d679daa	0.056546845
31	0x3ddb0718	0.106947124
32	0xbe184db5	-0.14873393
33	0xbcb851d0	-0.022499949
34	0x3cf85a85	0.0303166
35	0xbe171ffd	-0.14758296
36	0xbdb28404	-0.08716586
37	0x3e5843ab	0.21119563
38	0x3db48e22	0.08816172
39	0x3d00f97c	0.031487927
40	0x3bc242bd	0.005928366
41	0xbbd47420	-0.0064835697
42	0x3d7b9eda	0.06143079
43	0x3ca3bfd9	0.019988941
44	0xbd301350	-0.042987168
45	0x3ccbf7b0	0.02489838
46	0xbd2b1565	-0.04176845
47	0xbccb4780	-0.024814367
48	0x3d12dfd0	0.035857975
49	0xbd22ef68	-0.039779097
50	0xbd9ae052	-0.07562317
51	0x3d349e90	0.04409653
52	0xbb286a90	-0.0025698282
53	0xbc39ea7e	-0.011347411
54	0xbdd4a25f	-0.10382532
55	0x3d677d8d	0.05651622
56	0xbcce93d4	-0.025216974
57	0xbe1ef486	-0.15522966
58	0xbc521c3a	-0.012824113
59	0x3c8b0317	0.016969247
60	0xbd6b8668	-0.057501227
61	0x3d2c4f06	0.04206755
62	0xbcacaecd	-0.021079445
63	0x3c182d1b	0.009288098
64	0xbcb73dc1	-0.022368314
65	0xbceb17bd	-0.028697843
66	0xbdcb290f	-0.09919941
67	0xbd12abce	-0.035808377
68	0xbd48a042	-0.04898096
69	0x3bb5802e	0.005538962
70	0x3db74446	0.08948569
71	0x3c6ff8ec	0.01464675
72	0x3cdf052a	0.027224142
73	0xbe1629a0	-0.14664316
74	0x3d6628cd	0.056191254
75	0x3b3e0e2c	0.0029000146
76	0xbc730d6e	-0.014834745
77	0x3db24e1d	0.08706305
78	0x3d70431f	0.05865776
79	0x3dc1935a	0.09451933
80	0x3d9721a4	0.07379463
81	0xbd0650c1	-0.032791857
82	0x3c773bdb	0.015089954
83	0xbd94ec6c	-0.072716564
84	0xbd1aa991	-0.037759367
85	0x3e438a73	0.19095783
86	0x3e500259	0.20313396
87	0xbcd90b87	-0.026494754
88	0x3d0080e2	0.031372912
89	0x3d6c4e46	0.057691835
90	0x3d03537d	0.032062043
91	0xbd3f307b	-0.046677094
92	0xbe0a0876	-0.1347979
93	0xbcaf3528	-0.021387652
94	0x3d41e5c6	0.04733827
95	0x3d8a2545	0.0674539
96	0x3d13be43	0.03607012
97	0x3cc12fea	0.023582418
98	0xbcfb0298	-0.030640885
99	0x3cb1b248	0.021691456
100	0xbbcbb587	-0.006216708
101	0x3c9936f8	0.018702969
102	0x3c13afb3	0.009014058
103	0x3e089ee8	0.13341868
104	0xbca9ca18	-0.020726249
105	0x3cfb1758	0.03065078
106	0xbd4bd79e	-0.049766175
107	0xbcff33c4	-0.031152613
108	0x3d2e38c7	0.042534616
109	0x3ce95d0c	0.028486751
110	0xbd83eb8c	-0.064414114
111	0x3bd9efa4	0.006650882
112	0x3da6c8c0	0.08143759
113	0xbd6976fc	-0.056998238
114	0x3c866d3d	0.01640951
115	0xbdb9bc5b	-0.09069129
116	0xbdc35244	-0.09537175
117	0x3caaaaf8	0.020833477
118	0x3ac74282	0.0015202316
119	0x3dc0a65a	0.09406729
120	0xbd38db97	-0.045131292
121	0xbda79426	-0.08182554
122	0x3d31ffdc	0.043456897
123	0x3d9b909f	0.07595944
124	0x3d804c45	0.06264547
125	0x3d18c210	0.037294447
126	0x3d1311fa	0.035905816
127	0xbd827cf8	-0.06371492
128	0x3b10e6ea	0.0022110292
129	0x3d49a6cf	0.049231347
130	0x3def0e75	0.11672679
131	0x3da48b3c	0.08034369
132	0xbcd8101f	-0.026374875
133	0xba39a30f	-0.00070814876
134	0x3d9f8545	0.07789091
135	0x3ce82296	0.028336804
136	0xbe0a8098	-0.13525617
137	0xbbd0e455	-0.0063748755
138	0x3d0ac17a	0.03387592
139	0x3cb28f3f	0.02179682
140	0x3bde99af	0.006793223
141	0x3c2607f9	0.010133737
142	0x3c4021aa	0.011726776
143	0xbdb77cd8	-0.08959359
144	0x3e61bafb	0.22043984
145	0x3dae0686	0.08497338
146	0x3c998548	0.018740311
147	0xbe1f516b	-0.15558402
148	0xbdb72775	-0.08943073
149	0xbd2a74ab	-0.04161517
150	0xbc7cd70d	-0.0154321315
151	0xbc7b3524	-0.015332494
152	0x3b8c6d25	0.004285472
153	0xbd8da6b6	-0.06916563
154	0x3cb1633c	0.021653764
155	0xbd4cc0d4	-0.049988583
156	0x3b4d2079	0.0031299873
157	0xbdab3f31	-0.08361662
158	0x3d22e308	0.039767295
159	0x3d56cc41	0.052440885
160	0x3d872765	0.06599311
161	0x3d4ef9d3	0.05053122
162	0xbc5aaf68	-0.013347484
163	0x3d13e1a6	0.036103867
164	0x3cfdcd9a	0.030981828
165	0xbda4580d	-0.08024607
166	0x3ce19759	0.027537988
167	0x3dd494bb	0.103799306
168	0x3d4400bb	0.04785226
169	0x3e4dcfb6	0.20098767
170	0xbd31b3ab	-0.043384235
171	0xbdf3018b	-0.11865529
172	0xbd18a13d	-0.037263144
173	0x3d4755eb	0.048665922
174	0xbcbe8bbd	-0.023259992
175	0xbe04dd07	-0.1297494
176	0x381e36c0	3.7721125e-05
177	0xbd0eea80	-0.034891605
178	0xbd1b5c1b	-0.037929635
179	0x3dbe8f32	0.09304656
180	0xbd847fee	-0.06469713
181	0x3db532db	0.088475905
182	0x3d324513	0.043522906
183	0x3d72fc04	0.059322372
184	0x3d2a1b72	0.04153008
185	0x3d44b77d	0.04802655
186	0x3bed8338	0.0072483085
187	0x3d3989e5	0.045297522
188	0xbd33b985	-0.043878097
189	0x3d8722ff	0.06598472
190	0xbcb96c39	-0.022634612
191	0xbc1e2845	-0.009653156
192	0xbd8ecd19	-0.06972713
193	0xbdd51e83	-0.1040621
194	0x3dbe5841	0.09294177
195	0x3df63517	0.12021845
196	0x3d19dea8	0.037565857
197	0x3c00156e	0.007817609
198	0xbc4600a5	-0.012085115
199	0xbc754009	-0.01496888
200	0xbda58b7a	-0.08083244
201	0x3c9a636c	0.018846236
202	0x3d8ec251	0.06970657
203	0xbd85f73e	-0.06541298
204	0x3dcfbc6d	0.10143361
205	0xbceb467b	-0.028720131
206	0x3cb66650	0.022265583
207	0x3dca601f	0.09881615
208	0xbcdced23	-0.026968544
209	0xbd904844	-0.070450336
210	0x3cd788c2	0.026310328
211	0x3d1f1b31	0.03884429
212	0x3cb60f61	0.02222413
213	0x3db8fe4f	0.090328805
214	0xbdbae150	-0.09125006
215	0xbddb642b	-0.10712465
216	0xbc87d467	-0.016580774
217	0x3cf69e60	0.030104816
218	0x3bcb81ef	0.0062105577
219	0xbd6ab369	-0.057300005
220	0x3d857799	0.06516952
221	0x3db14f75	0.08657733
222	0x3b9f6c1b	0.004865182
223	0x3cee6335	0.02910004
224	0x3d045d60	0.03231561
225	0xbdefdc35	-0.11711923
226	0x3dfce295	0.123479046
227	0x3d8fa29e	0.07013439
228	0x3cf781fd	0.03021335
229	0xbcdae4a0	-0.026720345
230	0xbd02d316	-0.03193959
231	0x3d14cbe7	0.03632727
232	0xbd52e851	-0.051491085
233	0xb8cd7bc5	-9.7982156e-05
234	0x3b1d4662	0.002399825
235	0xbc83dd42	-0.016096715
236	0xbca147a6	-0.019687485
237	0xbd666d14	-0.05625637
238	0xbd045e66	-0.032316588
239	0x3c935bdd	0.01798814
240	0x3d66b138	0.056321353
241	0x3da91e25	0.08257703
242	0xbd77f2ea	-0.060534395
243	0x3d458de1	0.04823101
244	0xbe0d82b8	-0.13819396
245	0xbcfb4401	-0.030672075
246	0x3cb27239	0.021782981
247	0x3d16fe02	0.036863334
248	0xbe141a1d	-0.14463086
249	0xbd7874c0	-0.060658216
250	0xbde0c7e4	-0.10975626
251	0xbd5939bb	-0.05303357
252	0x3d93aa18	0.07210177
253	0x3cc12e8c	0.023581766
254	0x3b268e29	0.0025414324
255	0x3c09af36	0.00840359

sequential_1/lstm_1/while/lstm_cell_1/BiasAdd/ReadVariableOp f4 [256]
0	0x3c2d2cb5	0.010569741
1	0xba9c55d6	-0.0011927437
2	0x3b534963	0.0032239787
3	0xbae12109	-0.0017175983
4	0x3ca8a3ce	0.02058592
5	0x3cbc905e	0.023018058
6	0x3c378713	0.011201638
7	0xbbaa1072	-0.0051899487
8	0x3c33df8d	0.010978592
9	0x3c54cb60	0.0129879415
10	0xbb1a2a47	-0.0023523734
11	0x3c1bb2f0	0.009503111
12	0xbbaeecf3	-0.005338305
13	0x3c2de747	0.010614223
14	0x3a769d76	0.0009407619
15	0x3cb66de0	0.02226919
16	0xbc703b56	-0.014662584
17	0x3c9ff2a1	0.019524874
18	0x3b95add1	0.0045678397
19	0x3c036069	0.008018591
20	0x3c96fe5a	0.018431831
21	0x3c3e3596	0.011609456
22	0x3c9a3b5b	0.018827131
23	0xb9885dea	-0.00026009913
24	0x3c8da9a7	0.01729281
25	0x3c5b403a	0.013382012
26	0x3c09a2e9	0.008400657
27	0xbba8df1d	-0.0051535503
28	0xbbba9081	-0.0056934957
29	0xbc03a3bc	-0.008034643
30	0x3c8978c7	0.016781224
31	0xbba48d6d	-0.005021742
32	0x3c4a0eec	0.012332659
33	0x3bc518e3	0.0060149296
34	0x3c67f99b	0.014158632
35	0xbb29a9c5	-0.0025888544
36	0x3b5fcc54	0.0034148889
37	0x3cab0059	0.02087419
38	0xbc4c3854	-0.012464602
39	0x3cdaa5c8	0.026690379
40	0xbc46bde6	-0.012130236
41	0x3c45d2af	0.012074157
42	0x3ba421fc	0.005008934
43	0x3b11bc35	0.0022237424
44	0xbb33c3f8	-0.002743004
45	0x3bdf66bb	0.0068176663
46	0x3c341fb6	0.010993889
47	0xb78d0841	-1.6812353e-05
48	0xbb0a35be	-0.0021089162
49	0x3c409d10	0.011756197
50	0x3c34cdce	0.011035396
51	0x3c732f1e	0.014842777
52	0x3afa22cc	0.0019083857
53	0xbbb7910a	-0.005602007
54	0xbbaf5931	-0.0053512086
55	0x3afae5ee	0.0019142011
56	0x3c91a750	0.017779976
57	0x3c6d5c72	0.014487373
58	0x3c3c29ec	0.011484604
59	0x3c9f8c0a	0.019475956
60	0xbbda3631	-0.006659292
61	0x3bf8bfef	0.0075912396
62	0x3bf95294	0.007608721
63	0xba70ac0e	-0.00091809116
64	0x3f82feda	1.0234025
65	0x3f7e9df4	0.9945977
66	0x3f8142f9	1.0098563
67	0x3f80296c	1.0012641
68	0x3f834b72	1.0257399
69	0x3f821cfc	1.0165095
70	0x3f818d80	1.0121307
71	0x3f7e9ce6	0.9945816
72	0x3f814eba	1.010215
73	0x3f81bd9b	1.0135988
74	0x3f7ea5e4	0.9947188
75	0x3f81042b	1.0079397
76	0x3f80b1fb	1.0054315
77	0x3f812aaf	1.0091151
78	0x3f80666e	1.0031259
79	0x3f829710	1.0202351
80	0x3f7d0579	0.98836476
81	0x3f808a40	1.004219
82	0x3f8008ce	1.0002687
83	0x3f819ef9	1.012664
84	0x3f837b0c	1.0271926
85	0x3f822ad9	1.0169326
86	0x3f823c8b	1.0174726
87	0x3f7f8a8c	0.9982078
88	0x3f818e5d	1.0121571
89	0x3f8360a1	1.0263864
90	0x3f812954	1.0090737
91	0x3f7e0d50	0.99239063
92	0x3f7f2ffa	0.9968258
93	0x3f7eaa7a	0.99478877
94	0x3f834549	1.0255519
95	0x3f8003f6	1.0001209
96	0x3f82c902	1.0217593
97	0x3f823351	1.017191
98	0x3f80514a	1.0024807
99	0x3f7fa2d5	0.99857837
100	0x3f7e484f	0.99329084
101	0x3f82a16c	1.0205512
102	0x3f7d6ed5	0.9899724
103	0x3f840bc2	1.0316088
104	0x3f7f613d	0.9975775
105	0x3f815dfd	1.0106808
106	0x3f80b228	1.0054369
107	0x3f81e944	1.0149312
108	0x3f7c9f76	0.9868082
109	0x3f80d565	1.0065123
110	0x3f8100e6	1.0078399
111	0x3f828ff1	1.0200177
112	0x3f7eef56	0.9958395
113	0x3f8043e0	1.0020714
114	0x3f8189a1	1.0120126
115	0x3f81473c	1.0099864
116	0x3f814bd1	1.0101262
117	0x3f7d2024	0.9887717
118	0x3f7e3791	0.9930354
119	0x3f800dba	1.0004189
120	0x3f81e8d5	1.014918
121	0x3f82f864	1.0232053
122	0x3f818035	1.0117251
123	0x3f81f96a	1.015424
124	0x3f80bc67	1.0057496
125	0x3f811583	1.008469
126	0x3f804be2	1.0023158
127	0x3f7f29f3	0.99673384
128	0xbb7f9573	-0.003899899
129	0xbb73e688	-0.0037216265
130	0x3c42b14f	0.011883094
131	0xbbb63211	-0.0055601676
132	0xbc1853d2	-0.009297328
133	0x3bb869d2	0.005627849
134	0x3b8f5197	0.00437374
135	0x3a3dedcc	0.00072452123
136	0xbbc0daab	-0.0058854423
137	0xbc2c5ea3	-0.01052061
138	0xba9fce11	-0.001219215
139	0x3ac21189	0.0014806251
140	0xbc863ed0	-0.016387373
141	0xb9c13e5a	-0.00036858284
142	0x3c0f994b	0.008764575
143	0xbc772a47	-0.015085763
144	0xbafa3096	-0.0019087966
145	0xbb6605f0	-0.0035098754
146	0x38b10287	8.4404885e-05
147	0xbc652fd3	-0.013988453
148	0x3b757b0f	0.0037457382
149	0xbb26b78d	-0.0025438995
150	0x3be3ac37	0.00694802
151	0xbb2ce46a	-0.0026381263
152	0x3b2f3122	0.0026732166
153	0xbc1c15d3	-0.009526688
154	0x3bedb550	0.00725428
155	0xbc6a829a	-0.014313364
156	0xbb0ab89b	-0.0021167162
157	0xbad3a5c4	-0.0016147424
158	0x3bb29594	0.00544996
159	0x3c6a1930	0.014288232
160	0xbc03a006	-0.008033758
161	0xbc3ffaa8	-0.011717476
162	0xbb1fd554	-0.0024388628
163	0x3c439b49	0.011938878
164	0xbc03a4c0	-0.008034885
165	0x3c804e5b	0.015662363
166	0x3b06390b	0.0020480778
167	0xbaf83df4	-0.0018939362
168	0x3bb3207a	0.005466518
169	0xbc53ce19	-0.0129275555
170	0x3c96a008	0.018386856
171	0x3c3d111f	0.0115397265
172	0x3b25aa1a	0.002527839
173	0x3bd7a843	0.0065813377
174	0x3c03793e	0.008024512
175	0x3b56a1cd	0.003275025
176	0x3c83d924	0.016094752
177	0xbc3dbc32	-0.011580514
178	0x3b3ea5a3	0.0029090426
179	0x3c55063e	0.013001977
180	0xbb47533d	-0.0030414604
181	0x3c960f4c	0.018317841
182	0x3c86092f	0.016361801
183	0xbc9a7c2a	-0.018858034
184	0x3af14de9	0.001841006
185	0x3b307a8e	0.0026928517
186	0xbc3669ae	-0.011133594
187	0xbb030793	-0.0019993528
188	0xbaaff045	-0.0013423046
189	0x3bdb9799	0.0067014215
190	0x3bbb7ac9	0.0057214242
191	0x3bcb6da1	0.006208137
192	0x3cb75ed4	0.022384085
193	0xbb4c4c1f	-0.0031173301
194	0x3cc17e14	0.023619689
195	0xbadd35a1	-0.0016876945
196	0x3cb6328a	0.022240896
197	0x3d1bb29f	0.038012143
198	0x3c8cc16e	0.017182078
199	0xbb9ab9bd	-0.0047218488
200	0x3c7dc2a2	0.015488299
201	0x3d278383	0.040896904
202	0xbc0ef19d	-0.008724597
203	0x3ce01436	0.027353387
204	0x3b89698c	0.0041934904
205	0x3c07d7c6	0.0082911905
206	0x3ce1cd84	0.027563818
207	0x3cc6b6e6	0.024257135
208	0xbaa1b6d4	-0.0012337812
209	0x3ce98c47	0.028509272
210	0x3c854423	0.016267842
211	0x3caf5324	0.02140195
212	0x3ce10e4b	0.027472636
213	0x3cfde59e	0.03099328
214	0x3cf4b530	0.029871553
215	0xbb9ca5de	-0.004780515
216	0x3c26590d	0.010153067
217	0x3d0f4d4a	0.034985818
218	0x3c2bac0d	0.010478032
219	0xba3139b0	-0.000676061
220	0xbb793b2b	-0.0038029652
221	0xbbbd6311	-0.005779632
222	0x3ce6dbcc	0.02818098
223	0x3b95f4df	0.00457631
224	0x3cbd7efc	0.02313184
225	0x3cb035a6	0.021509957
226	0x3c881dbe	0.016615745
227	0x3c1e6b3d	0.009669122
228	0xbbc3b3a7	-0.005972344
229	0x3c22698b	0.009912859
230	0xbbdb2a1c	-0.0066883694
231	0x3d0ad870	0.033897817
232	0xbb7eb6e4	-0.0038866336
233	0x3ce6a317	0.02815394
234	0x3c87f733	0.016597366
235	0x3c6e15c5	0.014531557
236	0x3c039e97	0.008033416
237	0x3c64ae53	0.013957578
238	0x3ac75c7f	0.0015210061
239	0x3cab4eec	0.020911656
240	0xbabc698e	-0.001437472
241	0x3af1ccd8	0.0018447889
242	0x3cd4707f	0.025932549
243	0x3ccc82c9	0.024964707
244	0x3c330b4c	0.010927986
245	0xbc5340cd	-0.012893868
246	0xbbf3d98a	-0.007441704
247	0x3ad1eaa3	0.0016015362
248	0x3cd79d6b	0.02632018
249	0x3c628b9c	0.013827231
250	0x3c7da397	0.015480897
251	0x3cbcc074	0.023040988
252	0xbb107458	-0.0022042003
253	0x3c7ff3c7	0.015622086
254	0xbbdba8b9	-0.006703463
255	0xbba33295	-0.004980395
