assets/models/imu_model.tflite (tflite, 13480 bytes, 6 tensors)

arith.constant3 f4 [32]
0	0xbafd6b96	-0.0019334431
1	0xbbd8c946	-0.0066157905
2	0xbc99ed3a	-0.018789876
3	0xbc8586f7	-0.016299708
4	0xbc5936ba	-0.013257677
5	0x3d03c460	0.0321697
6	0xbc18add7	-0.00931879
7	0xbc9df7ef	-0.019283263
8	0x3c125335	0.008930971
9	0xbb8678a8	-0.004103739
10	0xbc5aa9e8	-0.013346173
11	0xbbcfc5b6	-0.0063407077
12	0x3b9a9a26	0.004718083
13	0x3d030eed	0.031996656
14	0x3d0c727e	0.034288876
15	0xbb36e501	-0.0027907493
16	0xbbfb78d8	-0.007674318
17	0xbb42f662	-0.0029748906
18	0x39c7ace4	0.0003808505
19	0x3bece3c2	0.0072292993
20	0x3bcd4d95	0.006265352
21	0xbbb8e290	-0.0056422427
22	0x3c760823	0.015016588
23	0xbc636147	-0.013878173
24	0x3c3724bf	0.011178195
25	0x3b5e09e0	0.0033880398
26	0x37b3c5b3	2.1430524e-05
27	0xbc5ba3de	-0.013405768
28	0xbc250aa5	-0.010073339
29	0xbc4f4855	-0.012651523
30	0x3af425c9	0.0018626984
31	0x3b690cf7	0.0035560706

arith.constant4 f4 [64]
0	0x3cb77c26	0.022398066
1	0x3b1adc9b	0.0023630026
2	0xbc79fe89	-0.01525844
3	0xbc3aeb08	-0.011408575
4	0x3c55eea1	0.013057382
5	0xbbe219aa	-0.006900032
6	0x3cb4a6a6	0.02205212
7	0x3ca41527	0.020029617
8	0xbb13264e	-0.0022453251
9	0x3c240768	0.010011531
10	0xbc87f06f	-0.01659414
11	0xbb3a3a7d	-0.002841621
12	0x3c1dda62	0.009634586
13	0xbc17e737	-0.0092714345
14	0xbc335035	-0.010944416
15	0xbc16b7d6	-0.009199103
16	0xbaf40db1	-0.0018619803
17	0xbc26fcb2	-0.010192083
18	0x3d26dddf	0.040738937
19	0xbcb7b1b9	-0.022423612
20	0x3bd50405	0.0065007233
21	0x3c35d468	0.011098005
22	0xbb94f1d6	-0.0045454307
23	0xbc7ddedf	-0.015495031
24	0xbc7a79b6	-0.015287807
25	0x3ad6fa7a	0.0016401552
26	0x3cacaaf4	0.02107761
27	0x3cba1ec8	0.022719756
28	0xbc6d809f	-0.014495998
29	0x3ca0b83d	0.019619102
30	0x3a1f60be	0.00060797844
31	0x3b8f10a9	0.0043659997
32	0xbc60477b	-0.013688917
33	0x3c24294f	0.010019614
34	0xbbb2b49c	-0.005453659
35	0xbbe17da6	-0.0068814335
36	0x3c2fc9af	0.010729237
37	0xbb982c20	-0.004643932
38	0x3c87a97d	0.01656031
39	0x3cbca253	0.023026621
40	0xbb2b1e2f	-0.002611052
41	0x3b4b5188	0.0031023938
42	0xbc99da65	-0.018780896
43	0x3c0611d7	0.008182964
44	0xbc641d9e	-0.013923077
45	0x3b0828f8	0.0020776372
46	0xbc3c093f	-0.011476814
47	0x3adeefe1	0.0017008745
48	0xbc3fdb7a	-0.011710042
49	0xbadbcb42	-0.001676895
50	0x3b5f8b2c	0.0034110053
51	0xbbb6b3e5	-0.0055756443
52	0xbb7f5723	-0.003896185
53	0x3c19405b	0.009353722
54	0xbbd16deb	-0.006391277
55	0xbc25420b	-0.010086547
56	0xbc995cea	-0.018721063
57	0xbc0f132b	-0.008732597
58	0x3c1911d6	0.009342631
59	0x3b0d960d	0.002160433
60	0x3cba58e8	0.022747472
61	0xbcd5258a	-0.026018877
62	0x3ae0e3ae	0.0017157698
63	0x3bd404bc	0.006470291

arith.constant5 f4 [2]
0	0xbb93ac77	-0.0045066434
1	0x3b93ab29	0.004506488

arith.constant6 f4 [2, 32]
0	0x3e79a9eb	0.24381225
1	0xbd3dd41e	-0.04634487
2	0x3e40443c	0.1877603
3	0x3deff3a0	0.1171639
4	0x3e302c7e	0.17204472
5	0x3ea4e222	0.32203776
6	0x3e974ba5	0.295499
7	0x3db764da	0.08954783
8	0x3d1c6619	0.038183305
9	0x3eb7643d	0.35818663
10	0x3ec36447	0.38162443
11	0x3eceb4c4	0.40372288
12	0xbdcb3230	-0.09921682
13	0xbd4f21d3	-0.050569367
14	0xbe56e215	-0.20984681
15	0x3df72398	0.12067336
16	0x3cd13e52	0.025542412
17	0xbe948cc2	-0.2901364
18	0x3d185278	0.037188023
19	0xbe1b70db	-0.1517977
20	0x3c9a6043	0.01884473
21	0x3e885e8f	0.26634642
22	0x3e43e7b2	0.19131353
23	0xbc296985	-0.010340099
24	0xbdb0ec5a	-0.086388305
25	0xbea2faa1	-0.3183184
26	0xbe77f28d	-0.2421362
27	0xbd29a2db	-0.041415077
28	0xbdd052c9	-0.1017204
29	0x3e65b595	0.2243255
30	0xbe3d6e62	-0.18499139
31	0xbee4d585	-0.44694152
32	0xbe92168a	-0.2853282
33	0xbece814e	-0.40333027
34	0x3ddb87e9	0.10719282
35	0xbe3d3512	-0.18477276
36	0xbe2fb08c	-0.17157191
37	0x3e6271d7	0.22113739
38	0x3ebb05a6	0.36527747
39	0x3e034ffa	0.12823477
40	0x3edc6bf1	0.43051103
41	0xbe26bf9c	-0.1628403
42	0x3ed09e20	0.4074564
43	0x3e58fae3	0.21189456
44	0xbec5b917	-0.38617775
45	0x3e6dd7b5	0.23226817
46	0x3ed62e6a	0.41832286
47	0xbe5dc038	-0.21655357
48	0xbea92f26	-0.33043784
49	0x3deb1a38	0.1147961
50	0xbe8f15b7	-0.27946255
51	0x3ea3cba7	0.31991312
52	0x3eb0649b	0.34451756
53	0x3e61736f	0.2201669
54	0xbe2902a6	-0.16504917
55	0xbe9f9865	-0.31170955
56	0x3d930d3a	0.07180257
57	0x3e8e6a4a	0.27815467
58	0x3e0fdb73	0.14048557
59	0xbde24e5a	-0.110501006
60	0x3eb3958a	0.35075027
61	0x3dc2c826	0.095108315
62	0x3e84e5ea	0.2595666
63	0x3ec72411	0.38894704

tfl.pseudo_qconst i1 [32, 64] scale=0.00771503 zero_point=0
0	0x15	0.16201563
1	0xe4	-0.21602084
2	0x0e	0.10801042
3	0xfa	-0.04629018
4	0xf7	-0.06943527
5	0x0a	0.0771503
6	0x1d	0.22373587
7	0xf1	-0.11572545
8	0x0b	0.08486533
9	0xe7	-0.19287576
10	0xfc	-0.03086012
11	0x0f	0.11572545
12	0xe6	-0.20059079
13	0xf2	-0.10801042
14	0x12	0.13887054
15	0x1c	0.21602084
16	0xe8	-0.18516073
17	0xe1	-0.23916593
18	0xf3	-0.100295395
19	0xfb	-0.03857515
20	0x16	0.16973066
21	0xe6	-0.20059079
22	0x13	0.14658557
23	0x1c	0.21602084
24	0xef	-0.1311555
25	0xed	-0.14658557
26	0xe6	-0.20059079
27	0xfc	-0.03086012
28	0xfc	-0.03086012
29	0x11	0.1311555
30	0xe1	-0.23916593
31	0xe4	-0.21602084
32	0xea	-0.16973066
33	0x00	0.0
34	0xf1	-0.11572545
35	0xf0	-0.12344048
36	0x14	0.1543006
37	0x18	0.18516073
38	0xed	-0.14658557
39	0xf8	-0.06172024
40	0xf5	-0.08486533
41	0xf2	-0.10801042
42	0xe9	-0.1774457
43	0xf6	-0.0771503
44	0x0b	0.08486533
45	0xf2	-0.10801042
46	0xf2	-0.10801042
47	0x1e	0.2314509
48	0x16	0.16973066
49	0xee	-0.13887054
50	0x07	0.05400521
51	0x00	0.0
52	0x1e	0.2314509
53	0x11	0.1311555
54	0x0d	0.100295395
55	0xfa	-0.04629018
56	0x1a	0.20059079
57	0x04	0.03086012
58	0xf6	-0.0771503
59	0xf1	-0.11572545
60	0x13	0.14658557
61	0x1a	0.20059079
62	0xfd	-0.02314509
63	0x1b	0.2083058
64	0xe6	-0.20059079
65	0xe5	-0.2083058
66	0x06	0.04629018
67	0xeb	-0.16201563
68	0x15	0.16201563
69	0xff	-0.00771503
70	0xdd	-0.27002606
71	0xf1	-0.11572545
72	0x0f	0.11572545
73	0xe1	-0.23916593
74	0x0d	0.100295395
75	0xeb	-0.16201563
76	0x17	0.1774457
77	0xed	-0.14658557
78	0x14	0.1543006
79	0x01	0.00771503
80	0xff	-0.00771503
81	0xf0	-0.12344048
82	0x12	0.13887054
83	0xfa	-0.04629018
84	0x15	0.16201563
85	0xf0	-0.12344048
86	0xe9	-0.1774457
87	0x13	0.14658557
88	0x0c	0.09258036
89	0x0f	0.11572545
90	0x1c	0.21602084
91	0x02	0.01543006
92	0x02	0.01543006
93	0x0e	0.10801042
94	0xeb	-0.16201563
95	0x0d	0.100295395
96	0x06	0.04629018
97	0xf5	-0.08486533
98	0x01	0.00771503
99	0x05	0.03857515
100	0x15	0.16201563
101	0x0c	0.09258036
102	0xe6	-0.20059079
103	0xe2	-0.2314509
104	0x05	0.03857515
105	0x01	0.00771503
106	0x00	0.0
107	0x1b	0.2083058
108	0x09	0.06943527
109	0x15	0.16201563
110	0x1e	0.2314509
111	0xf4	-0.09258036
112	0xf0	-0.12344048
113	0xf9	-0.05400521
114	0x0c	0.09258036
115	0x01	0.00771503
116	0xe5	-0.2083058
117	0xe5	-0.2083058
118	0xf3	-0.100295395
119	0x0a	0.0771503
120	0xf8	-0.06172024
121	0x15	0.16201563
122	0x04	0.03086012
123	0xfb	-0.03857515
124	0xdd	-0.27002606
125	0x07	0.05400521
126	0x20	0.24688096
127	0xe4	-0.21602084
128	0xf9	-0.05400521
129	0x0d	0.100295395
130	0xe9	-0.1774457
131	0x12	0.13887054
132	0x09	0.06943527
133	0x14	0.1543006
134	0x07	0.05400521
135	0xfa	-0.04629018
136	0xee	-0.13887054
137	0xff	-0.00771503
138	0x10	0.12344048
139	0x09	0.06943527
140	0xdd	-0.27002606
141	0xe4	-0.21602084
142	0x09	0.06943527
143	0x0f	0.11572545
144	0xfc	-0.03086012
145	0x07	0.05400521
146	0x02	0.01543006
147	0xe7	-0.19287576
148	0xf8	-0.06172024
149	0x1d	0.22373587
150	0x16	0.16973066
151	0x0f	0.11572545
152	0xf7	-0.06943527
153	0xec	-0.1543006
154	0xdc	-0.27774107
155	0x20	0.24688096
156	0x0f	0.11572545
157	0xdc	-0.27774107
158	0x05	0.03857515
159	0xde	-0.262311
160	0xfc	-0.03086012
161	0xde	-0.262311
162	0x1c	0.21602084
163	0xe5	-0.2083058
164	0x07	0.05400521
165	0x0b	0.08486533
166	0x0b	0.08486533
167	0xe4	-0.21602084
168	0x15	0.16201563
169	0x0f	0.11572545
170	0xf6	-0.0771503
171	0x01	0.00771503
172	0x1c	0.21602084
173	0x0a	0.0771503
174	0x0b	0.08486533
175	0x00	0.0
176	0x04	0.03086012
177	0x07	0.05400521
178	0x15	0.16201563
179	0xe6	-0.20059079
180	0x14	0.1543006
181	0xf8	-0.06172024
182	0xfb	-0.03857515
183	0x16	0.16973066
184	0x0f	0.11572545
185	0xe2	-0.2314509
186	0xe2	-0.2314509
187	0xe0	-0.24688096
188	0x0d	0.100295395
189	0xf5	-0.08486533
190	0x19	0.19287576
191	0x0f	0.11572545
192	0x56	0.66349256
193	0xec	-0.1543006
194	0x1d	0.22373587
195	0xc5	-0.45518678
196	0xee	-0.13887054
197	0x04	0.03086012
198	0xe5	-0.2083058
199	0xfa	-0.04629018
200	0x10	0.12344048
201	0xf8	-0.06172024
202	0x05	0.03857515
203	0xf6	-0.0771503
204	0x21	0.254596
205	0xfd	-0.02314509
206	0xdb	-0.28545612
207	0x0b	0.08486533
208	0xa8	-0.67892265
209	0xfc	-0.03086012
210	0x4f	0.60948735
211	0x01	0.00771503
212	0x20	0.24688096
213	0xef	-0.1311555
214	0xea	-0.16973066
215	0xf7	-0.06943527
216	0xf9	-0.05400521
217	0x3a	0.44747174
218	0xf7	-0.06943527
219	0xe9	-0.1774457
220	0x04	0.03086012
221	0x24	0.27774107
222	0xf1	-0.11572545
223	0x02	0.01543006
224	0xe1	-0.23916593
225	0x13	0.14658557
226	0x08	0.06172024
227	0x23	0.27002606
228	0x22	0.262311
229	0xfb	-0.03857515
230	0xf4	-0.09258036
231	0xe9	-0.1774457
232	0x06	0.04629018
233	0xfa	-0.04629018
234	0x0a	0.0771503
235	0x07	0.05400521
236	0xec	-0.1543006
237	0xf1	-0.11572545
238	0x03	0.02314509
239	0x3f	0.4860469
240	0xe3	-0.22373587
241	0x29	0.31631625
242	0xe7	-0.19287576
243	0xf5	-0.08486533
244	0x18	0.18516073
245	0xe5	-0.2083058
246	0xf2	-0.10801042
247	0x15	0.16201563
248	0x1d	0.22373587
249	0xff	-0.00771503
250	0xf4	-0.09258036
251	0xf5	-0.08486533
252	0x81	-0.9798088
253	0xf3	-0.100295395
254	0x11	0.1311555
255	0xfc	-0.03086012

tfl.pseudo_qconst1 i1 [64, 120] scale=0.0023300564 zero_point=0
0	0xb5	-0.17475423
1	0x36	0.12582305
2	0xbd	-0.15611377
3	0x26	0.08854214
4	0xe5	-0.062911525
5	0xc1	-0.14679356
6	0x0d	0.030290734
7	0xae	-0.19106463
8	0x02	0.004660113
9	0xf6	-0.023300564
10	0xd0	-0.11184271
11	0x2c	0.10252248
12	0x3c	0.13980338
13	0xff	-0.0023300564
14	0xfc	-0.009320226
15	0xae	-0.19106463
16	0xdd	-0.08155198
17	0x4e	0.1817444
18	0x37	0.1281531
19	0x2b	0.10019243
20	0xf7	-0.020970508
21	0x11	0.03961096
22	0x09	0.020970508
23	0x11	0.03961096
24	0x3e	0.1444635
25	0xcc	-0.121162936
26	0xcf	-0.114172764
27	0xcf	-0.114172764
28	0x38	0.13048315
29	0x23	0.08155198
30	0xb8	-0.16776407
31	0xcd	-0.11883288
32	0xf9	-0.016310394
33	0xea	-0.05126124
34	0xfb	-0.011650282
35	0xe3	-0.06757163
36	0xc7	-0.13281322
37	0x32	0.11650282
38	0xe0	-0.074561805
39	0x43	0.15611377
40	0x27	0.0908722
41	0xe3	-0.06757163
42	0x1b	0.062911525
43	0x28	0.093202256
44	0xae	-0.19106463
45	0xe5	-0.062911525
46	0x2e	0.10718259
47	0x30	0.11184271
48	0x29	0.09553231
49	0xc2	-0.1444635
50	0xf4	-0.027960677
51	0x28	0.093202256
52	0xff	-0.0023300564
53	0x18	0.055921353
54	0x4a	0.17242417
55	0xa7	-0.20737502
56	0xf3	-0.030290734
57	0x2e	0.10718259
58	0x40	0.14912361
59	0xf1	-0.034950845
60	0x3f	0.14679356
61	0xeb	-0.048931185
62	0xc8	-0.13048315
63	0xdd	-0.08155198
64	0x1c	0.065241575
65	0xd7	-0.09553231
66	0xed	-0.04427107
67	0xc9	-0.1281531
68	0x1b	0.062911525
69	0xd2	-0.10718259
70	0x32	0.11650282
71	0xfb	-0.011650282
72	0xb9	-0.165434
73	0xcf	-0.114172764
74	0xd8	-0.093202256
75	0xf2	-0.032620788
76	0x40	0.14912361
77	0xec	-0.046601128
78	0x1c	0.065241575
79	0xfa	-0.013980338
80	0xfb	-0.011650282
81	0x4f	0.18407446
82	0x39	0.13281322
83	0xf0	-0.037280902
84	0x32	0.11650282
85	0x13	0.04427107
86	0xde	-0.07922192
87	0x2b	0.10019243
88	0xc2	-0.1444635
89	0x33	0.11883288
90	0x25	0.08621208
91	0xe4	-0.065241575
92	0x1e	0.06990169
93	0x53	0.19339468
94	0x08	0.018640451
95	0x3f	0.14679356
96	0xc2	-0.1444635
97	0x20	0.074561805
98	0xe5	-0.062911525
99	0x4f	0.18407446
100	0x12	0.041941017
101	0xfd	-0.006990169
102	0xc4	-0.13980338
103	0xcf	-0.114172764
104	0xea	-0.05126124
105	0xe3	-0.06757163
106	0x0f	0.034950845
107	0xf6	-0.023300564
108	0xcd	-0.11883288
109	0x29	0.09553231
110	0x24	0.083882034
111	0xf1	-0.034950845
112	0x12	0.041941017
113	0xc3	-0.14213344
114	0xb5	-0.17475423
115	0x29	0.09553231
116	0x2d	0.104852535
117	0xf8	-0.018640451
118	0xe5	-0.062911525
119	0x0c	0.027960677
120	0xde	-0.07922192
121	0x14	0.046601128
122	0x1f	0.07223175
123	0xc3	-0.14213344
124	0x19	0.05825141
125	0xd4	-0.10252248
126	0xe3	-0.06757163
127	0xbf	-0.15145366
128	0xe1	-0.07223175
129	0x15	0.048931185
130	0x34	0.121162936
131	0xf0	-0.037280902
132	0xd8	-0.093202256
133	0x1b	0.062911525
134	0x22	0.07922192
135	0x2c	0.10252248
136	0x01	0.0023300564
137	0x00	0.0
138	0xf9	-0.016310394
139	0xee	-0.041941017
140	0x10	0.037280902
141	0xbf	-0.15145366
142	0x1e	0.06990169
143	0xf8	-0.018640451
144	0x20	0.074561805
145	0xe0	-0.074561805
146	0x39	0.13281322
147	0x17	0.053591296
148	0x56	0.20038486
149	0xf9	-0.016310394
150	0xf6	-0.023300564
151	0x22	0.07922192
152	0x29	0.09553231
153	0x3a	0.13514327
154	0x21	0.07689186
155	0xf7	-0.020970508
156	0x35	0.123492986
157	0x37	0.1281531
158	0xd5	-0.10019243
159	0xce	-0.11650282
160	0x21	0.07689186
161	0x0e	0.032620788
162	0xd8	-0.093202256
163	0x17	0.053591296
164	0x42	0.15378372
165	0x3b	0.13747333
166	0x47	0.165434
167	0x11	0.03961096
168	0x11	0.03961096
169	0x11	0.03961096
170	0x06	0.013980338
171	0x11	0.03961096
172	0x31	0.114172764
173	0x43	0.15611377
174	0xc2	-0.1444635
175	0xf4	-0.027960677
176	0x3c	0.13980338
177	0xf1	-0.034950845
178	0x20	0.074561805
179	0x08	0.018640451
180	0xec	-0.046601128
181	0xb4	-0.17708428
182	0x0e	0.032620788
183	0x1d	0.06757163
184	0xd9	-0.0908722
185	0xd1	-0.10951265
186	0x07	0.016310394
187	0x13	0.04427107
188	0x14	0.046601128
189	0x0d	0.030290734
190	0xe2	-0.06990169
191	0x0e	0.032620788
192	0xf9	-0.016310394
193	0xcb	-0.123492986
194	0xc6	-0.13514327
195	0xb1	-0.18407446
196	0xa5	-0.21203513
197	0x39	0.13281322
198	0xc5	-0.13747333
199	0xe6	-0.060581468
200	0xf2	-0.032620788
201	0xb2	-0.1817444
202	0xe4	-0.065241575
203	0x07	0.016310394
204	0x37	0.1281531
205	0xfb	-0.011650282
206	0xf5	-0.02563062
207	0x09	0.020970508
208	0x24	0.083882034
209	0xf8	-0.018640451
210	0x17	0.053591296
211	0x3a	0.13514327
212	0x44	0.15844384
213	0xf2	-0.032620788
214	0xbd	-0.15611377
215	0x34	0.121162936
216	0xeb	-0.048931185
217	0xd8	-0.093202256
218	0xe9	-0.053591296
219	0x02	0.004660113
220	0xb7	-0.17009412
221	0x2c	0.10252248
222	0xf1	-0.034950845
223	0xda	-0.08854214
224	0xe7	-0.05825141
225	0xfb	-0.011650282
226	0x49	0.17009412
227	0x3d	0.14213344
228	0x33	0.11883288
229	0xac	-0.19572474
230	0x1d	0.06757163
231	0x38	0.13048315
232	0xb8	-0.16776407
233	0x59	0.20737502
234	0xdc	-0.083882034
235	0xfd	-0.006990169
236	0xcd	-0.11883288
237	0x45	0.16077389
238	0x03	0.006990169
239	0x49	0.17009412
240	0x29	0.09553231
241	0xfc	-0.009320226
242	0xec	-0.046601128
243	0xc7	-0.13281322
244	0xc1	-0.14679356
245	0xd5	-0.10019243
246	0x43	0.15611377
247	0x3a	0.13514327
248	0x19	0.05825141
249	0x9d	-0.23067558
250	0xd0	-0.11184271
251	0x26	0.08854214
252	0xe0	-0.074561805
253	0x0c	0.027960677
254	0x1c	0.065241575
255	0x1f	0.07223175
